========================model_CFG=======================:
build_model_CFG(
  (image_encoder_g): CLIPVisionModelWithProjection(
    (vision_model): CLIPVisionTransformer(
      (embeddings): CLIPVisionEmbeddings(
        (patch_embedding): Conv2d(3, 768, kernel_size=(32, 32), stride=(32, 32), bias=False)
        (position_embedding): Embedding(50, 768)
      )
      (pre_layrnorm): LayerNorm((768,), eps=1e-05, elementwise_affine=True)
      (encoder): CLIPEncoder(
        (layers): ModuleList(
          (0-11): 12 x CLIPEncoderLayer(
            (self_attn): CLIPAttention(
              (k_proj): Linear(in_features=768, out_features=768, bias=True)
              (v_proj): Linear(in_features=768, out_features=768, bias=True)
              (q_proj): Linear(in_features=768, out_features=768, bias=True)
              (out_proj): Linear(in_features=768, out_features=768, bias=True)
            )
            (layer_norm1): LayerNorm((768,), eps=1e-05, elementwise_affine=True)
            (mlp): CLIPMLP(
              (activation_fn): QuickGELUActivation()
              (fc1): Linear(in_features=768, out_features=3072, bias=True)
              (fc2): Linear(in_features=3072, out_features=768, bias=True)
            )
            (layer_norm2): LayerNorm((768,), eps=1e-05, elementwise_affine=True)
          )
        )
      )
      (post_layernorm): LayerNorm((768,), eps=1e-05, elementwise_affine=True)
    )
    (visual_projection): Linear(in_features=768, out_features=512, bias=False)
  )
  (backbone): SwinTransformer(
    (patch_embed): PatchEmbed(
      (proj): Conv2d(3, 128, kernel_size=(4, 4), stride=(4, 4))
      (norm): LayerNorm((128,), eps=1e-05, elementwise_affine=True)
    )
    (pos_drop): Dropout(p=0.0, inplace=False)
    (layers): ModuleList(
      (0): BasicLayer(
        dim=128, input_resolution=(64, 64), depth=2
        (blocks): ModuleList(
          (0): SwinTransformerBlock(
            dim=128, input_resolution=(64, 64), num_heads=4, window_size=16, shift_size=0, mlp_ratio=4.0
            (norm1): LayerNorm((128,), eps=1e-05, elementwise_affine=True)
            (attn): WindowAttention(
              dim=128, window_size=(16, 16), num_heads=4
              (qkv): Linear(in_features=128, out_features=384, bias=True)
              (attn_drop): Dropout(p=0.0, inplace=False)
              (proj): Linear(in_features=128, out_features=128, bias=True)
              (proj_drop): Dropout(p=0.0, inplace=False)
              (softmax): Softmax(dim=-1)
            )
            (drop_path): Identity()
            (norm2): LayerNorm((128,), eps=1e-05, elementwise_affine=True)
            (mlp): Mlp(
              (fc1): Linear(in_features=128, out_features=512, bias=True)
              (act): GELU(approximate='none')
              (fc2): Linear(in_features=512, out_features=128, bias=True)
              (drop): Dropout(p=0.0, inplace=False)
            )
          )
          (1): SwinTransformerBlock(
            dim=128, input_resolution=(64, 64), num_heads=4, window_size=16, shift_size=8, mlp_ratio=4.0
            (norm1): LayerNorm((128,), eps=1e-05, elementwise_affine=True)
            (attn): WindowAttention(
              dim=128, window_size=(16, 16), num_heads=4
              (qkv): Linear(in_features=128, out_features=384, bias=True)
              (attn_drop): Dropout(p=0.0, inplace=False)
              (proj): Linear(in_features=128, out_features=128, bias=True)
              (proj_drop): Dropout(p=0.0, inplace=False)
              (softmax): Softmax(dim=-1)
            )
            (drop_path): DropPath(drop_prob=0.009)
            (norm2): LayerNorm((128,), eps=1e-05, elementwise_affine=True)
            (mlp): Mlp(
              (fc1): Linear(in_features=128, out_features=512, bias=True)
              (act): GELU(approximate='none')
              (fc2): Linear(in_features=512, out_features=128, bias=True)
              (drop): Dropout(p=0.0, inplace=False)
            )
          )
        )
        (downsample): PatchMerging(
          input_resolution=(64, 64), dim=128
          (reduction): Linear(in_features=512, out_features=256, bias=False)
          (norm): LayerNorm((512,), eps=1e-05, elementwise_affine=True)
        )
      )
      (1): BasicLayer(
        dim=256, input_resolution=(32, 32), depth=2
        (blocks): ModuleList(
          (0): SwinTransformerBlock(
            dim=256, input_resolution=(32, 32), num_heads=8, window_size=16, shift_size=0, mlp_ratio=4.0
            (norm1): LayerNorm((256,), eps=1e-05, elementwise_affine=True)
            (attn): WindowAttention(
              dim=256, window_size=(16, 16), num_heads=8
              (qkv): Linear(in_features=256, out_features=768, bias=True)
              (attn_drop): Dropout(p=0.0, inplace=False)
              (proj): Linear(in_features=256, out_features=256, bias=True)
              (proj_drop): Dropout(p=0.0, inplace=False)
              (softmax): Softmax(dim=-1)
            )
            (drop_path): DropPath(drop_prob=0.017)
            (norm2): LayerNorm((256,), eps=1e-05, elementwise_affine=True)
            (mlp): Mlp(
              (fc1): Linear(in_features=256, out_features=1024, bias=True)
              (act): GELU(approximate='none')
              (fc2): Linear(in_features=1024, out_features=256, bias=True)
              (drop): Dropout(p=0.0, inplace=False)
            )
          )
          (1): SwinTransformerBlock(
            dim=256, input_resolution=(32, 32), num_heads=8, window_size=16, shift_size=8, mlp_ratio=4.0
            (norm1): LayerNorm((256,), eps=1e-05, elementwise_affine=True)
            (attn): WindowAttention(
              dim=256, window_size=(16, 16), num_heads=8
              (qkv): Linear(in_features=256, out_features=768, bias=True)
              (attn_drop): Dropout(p=0.0, inplace=False)
              (proj): Linear(in_features=256, out_features=256, bias=True)
              (proj_drop): Dropout(p=0.0, inplace=False)
              (softmax): Softmax(dim=-1)
            )
            (drop_path): DropPath(drop_prob=0.026)
            (norm2): LayerNorm((256,), eps=1e-05, elementwise_affine=True)
            (mlp): Mlp(
              (fc1): Linear(in_features=256, out_features=1024, bias=True)
              (act): GELU(approximate='none')
              (fc2): Linear(in_features=1024, out_features=256, bias=True)
              (drop): Dropout(p=0.0, inplace=False)
            )
          )
        )
        (downsample): PatchMerging(
          input_resolution=(32, 32), dim=256
          (reduction): Linear(in_features=1024, out_features=512, bias=False)
          (norm): LayerNorm((1024,), eps=1e-05, elementwise_affine=True)
        )
      )
      (2): BasicLayer(
        dim=512, input_resolution=(16, 16), depth=18
        (blocks): ModuleList(
          (0): SwinTransformerBlock(
            dim=512, input_resolution=(16, 16), num_heads=16, window_size=16, shift_size=0, mlp_ratio=4.0
            (norm1): LayerNorm((512,), eps=1e-05, elementwise_affine=True)
            (attn): WindowAttention(
              dim=512, window_size=(16, 16), num_heads=16
              (qkv): Linear(in_features=512, out_features=1536, bias=True)
              (attn_drop): Dropout(p=0.0, inplace=False)
              (proj): Linear(in_features=512, out_features=512, bias=True)
              (proj_drop): Dropout(p=0.0, inplace=False)
              (softmax): Softmax(dim=-1)
            )
            (drop_path): DropPath(drop_prob=0.035)
            (norm2): LayerNorm((512,), eps=1e-05, elementwise_affine=True)
            (mlp): Mlp(
              (fc1): Linear(in_features=512, out_features=2048, bias=True)
              (act): GELU(approximate='none')
              (fc2): Linear(in_features=2048, out_features=512, bias=True)
              (drop): Dropout(p=0.0, inplace=False)
            )
          )
          (1): SwinTransformerBlock(
            dim=512, input_resolution=(16, 16), num_heads=16, window_size=16, shift_size=0, mlp_ratio=4.0
            (norm1): LayerNorm((512,), eps=1e-05, elementwise_affine=True)
            (attn): WindowAttention(
              dim=512, window_size=(16, 16), num_heads=16
              (qkv): Linear(in_features=512, out_features=1536, bias=True)
              (attn_drop): Dropout(p=0.0, inplace=False)
              (proj): Linear(in_features=512, out_features=512, bias=True)
              (proj_drop): Dropout(p=0.0, inplace=False)
              (softmax): Softmax(dim=-1)
            )
            (drop_path): DropPath(drop_prob=0.043)
            (norm2): LayerNorm((512,), eps=1e-05, elementwise_affine=True)
            (mlp): Mlp(
              (fc1): Linear(in_features=512, out_features=2048, bias=True)
              (act): GELU(approximate='none')
              (fc2): Linear(in_features=2048, out_features=512, bias=True)
              (drop): Dropout(p=0.0, inplace=False)
            )
          )
          (2): SwinTransformerBlock(
            dim=512, input_resolution=(16, 16), num_heads=16, window_size=16, shift_size=0, mlp_ratio=4.0
            (norm1): LayerNorm((512,), eps=1e-05, elementwise_affine=True)
            (attn): WindowAttention(
              dim=512, window_size=(16, 16), num_heads=16
              (qkv): Linear(in_features=512, out_features=1536, bias=True)
              (attn_drop): Dropout(p=0.0, inplace=False)
              (proj): Linear(in_features=512, out_features=512, bias=True)
              (proj_drop): Dropout(p=0.0, inplace=False)
              (softmax): Softmax(dim=-1)
            )
            (drop_path): DropPath(drop_prob=0.052)
            (norm2): LayerNorm((512,), eps=1e-05, elementwise_affine=True)
            (mlp): Mlp(
              (fc1): Linear(in_features=512, out_features=2048, bias=True)
              (act): GELU(approximate='none')
              (fc2): Linear(in_features=2048, out_features=512, bias=True)
              (drop): Dropout(p=0.0, inplace=False)
            )
          )
          (3): SwinTransformerBlock(
            dim=512, input_resolution=(16, 16), num_heads=16, window_size=16, shift_size=0, mlp_ratio=4.0
            (norm1): LayerNorm((512,), eps=1e-05, elementwise_affine=True)
            (attn): WindowAttention(
              dim=512, window_size=(16, 16), num_heads=16
              (qkv): Linear(in_features=512, out_features=1536, bias=True)
              (attn_drop): Dropout(p=0.0, inplace=False)
              (proj): Linear(in_features=512, out_features=512, bias=True)
              (proj_drop): Dropout(p=0.0, inplace=False)
              (softmax): Softmax(dim=-1)
            )
            (drop_path): DropPath(drop_prob=0.061)
            (norm2): LayerNorm((512,), eps=1e-05, elementwise_affine=True)
            (mlp): Mlp(
              (fc1): Linear(in_features=512, out_features=2048, bias=True)
              (act): GELU(approximate='none')
              (fc2): Linear(in_features=2048, out_features=512, bias=True)
              (drop): Dropout(p=0.0, inplace=False)
            )
          )
          (4): SwinTransformerBlock(
            dim=512, input_resolution=(16, 16), num_heads=16, window_size=16, shift_size=0, mlp_ratio=4.0
            (norm1): LayerNorm((512,), eps=1e-05, elementwise_affine=True)
            (attn): WindowAttention(
              dim=512, window_size=(16, 16), num_heads=16
              (qkv): Linear(in_features=512, out_features=1536, bias=True)
              (attn_drop): Dropout(p=0.0, inplace=False)
              (proj): Linear(in_features=512, out_features=512, bias=True)
              (proj_drop): Dropout(p=0.0, inplace=False)
              (softmax): Softmax(dim=-1)
            )
            (drop_path): DropPath(drop_prob=0.070)
            (norm2): LayerNorm((512,), eps=1e-05, elementwise_affine=True)
            (mlp): Mlp(
              (fc1): Linear(in_features=512, out_features=2048, bias=True)
              (act): GELU(approximate='none')
              (fc2): Linear(in_features=2048, out_features=512, bias=True)
              (drop): Dropout(p=0.0, inplace=False)
            )
          )
          (5): SwinTransformerBlock(
            dim=512, input_resolution=(16, 16), num_heads=16, window_size=16, shift_size=0, mlp_ratio=4.0
            (norm1): LayerNorm((512,), eps=1e-05, elementwise_affine=True)
            (attn): WindowAttention(
              dim=512, window_size=(16, 16), num_heads=16
              (qkv): Linear(in_features=512, out_features=1536, bias=True)
              (attn_drop): Dropout(p=0.0, inplace=False)
              (proj): Linear(in_features=512, out_features=512, bias=True)
              (proj_drop): Dropout(p=0.0, inplace=False)
              (softmax): Softmax(dim=-1)
            )
            (drop_path): DropPath(drop_prob=0.078)
            (norm2): LayerNorm((512,), eps=1e-05, elementwise_affine=True)
            (mlp): Mlp(
              (fc1): Linear(in_features=512, out_features=2048, bias=True)
              (act): GELU(approximate='none')
              (fc2): Linear(in_features=2048, out_features=512, bias=True)
              (drop): Dropout(p=0.0, inplace=False)
            )
          )
          (6): SwinTransformerBlock(
            dim=512, input_resolution=(16, 16), num_heads=16, window_size=16, shift_size=0, mlp_ratio=4.0
            (norm1): LayerNorm((512,), eps=1e-05, elementwise_affine=True)
            (attn): WindowAttention(
              dim=512, window_size=(16, 16), num_heads=16
              (qkv): Linear(in_features=512, out_features=1536, bias=True)
              (attn_drop): Dropout(p=0.0, inplace=False)
              (proj): Linear(in_features=512, out_features=512, bias=True)
              (proj_drop): Dropout(p=0.0, inplace=False)
              (softmax): Softmax(dim=-1)
            )
            (drop_path): DropPath(drop_prob=0.087)
            (norm2): LayerNorm((512,), eps=1e-05, elementwise_affine=True)
            (mlp): Mlp(
              (fc1): Linear(in_features=512, out_features=2048, bias=True)
              (act): GELU(approximate='none')
              (fc2): Linear(in_features=2048, out_features=512, bias=True)
              (drop): Dropout(p=0.0, inplace=False)
            )
          )
          (7): SwinTransformerBlock(
            dim=512, input_resolution=(16, 16), num_heads=16, window_size=16, shift_size=0, mlp_ratio=4.0
            (norm1): LayerNorm((512,), eps=1e-05, elementwise_affine=True)
            (attn): WindowAttention(
              dim=512, window_size=(16, 16), num_heads=16
              (qkv): Linear(in_features=512, out_features=1536, bias=True)
              (attn_drop): Dropout(p=0.0, inplace=False)
              (proj): Linear(in_features=512, out_features=512, bias=True)
              (proj_drop): Dropout(p=0.0, inplace=False)
              (softmax): Softmax(dim=-1)
            )
            (drop_path): DropPath(drop_prob=0.096)
            (norm2): LayerNorm((512,), eps=1e-05, elementwise_affine=True)
            (mlp): Mlp(
              (fc1): Linear(in_features=512, out_features=2048, bias=True)
              (act): GELU(approximate='none')
              (fc2): Linear(in_features=2048, out_features=512, bias=True)
              (drop): Dropout(p=0.0, inplace=False)
            )
          )
          (8): SwinTransformerBlock(
            dim=512, input_resolution=(16, 16), num_heads=16, window_size=16, shift_size=0, mlp_ratio=4.0
            (norm1): LayerNorm((512,), eps=1e-05, elementwise_affine=True)
            (attn): WindowAttention(
              dim=512, window_size=(16, 16), num_heads=16
              (qkv): Linear(in_features=512, out_features=1536, bias=True)
              (attn_drop): Dropout(p=0.0, inplace=False)
              (proj): Linear(in_features=512, out_features=512, bias=True)
              (proj_drop): Dropout(p=0.0, inplace=False)
              (softmax): Softmax(dim=-1)
            )
            (drop_path): DropPath(drop_prob=0.104)
            (norm2): LayerNorm((512,), eps=1e-05, elementwise_affine=True)
            (mlp): Mlp(
              (fc1): Linear(in_features=512, out_features=2048, bias=True)
              (act): GELU(approximate='none')
              (fc2): Linear(in_features=2048, out_features=512, bias=True)
              (drop): Dropout(p=0.0, inplace=False)
            )
          )
          (9): SwinTransformerBlock(
            dim=512, input_resolution=(16, 16), num_heads=16, window_size=16, shift_size=0, mlp_ratio=4.0
            (norm1): LayerNorm((512,), eps=1e-05, elementwise_affine=True)
            (attn): WindowAttention(
              dim=512, window_size=(16, 16), num_heads=16
              (qkv): Linear(in_features=512, out_features=1536, bias=True)
              (attn_drop): Dropout(p=0.0, inplace=False)
              (proj): Linear(in_features=512, out_features=512, bias=True)
              (proj_drop): Dropout(p=0.0, inplace=False)
              (softmax): Softmax(dim=-1)
            )
            (drop_path): DropPath(drop_prob=0.113)
            (norm2): LayerNorm((512,), eps=1e-05, elementwise_affine=True)
            (mlp): Mlp(
              (fc1): Linear(in_features=512, out_features=2048, bias=True)
              (act): GELU(approximate='none')
              (fc2): Linear(in_features=2048, out_features=512, bias=True)
              (drop): Dropout(p=0.0, inplace=False)
            )
          )
          (10): SwinTransformerBlock(
            dim=512, input_resolution=(16, 16), num_heads=16, window_size=16, shift_size=0, mlp_ratio=4.0
            (norm1): LayerNorm((512,), eps=1e-05, elementwise_affine=True)
            (attn): WindowAttention(
              dim=512, window_size=(16, 16), num_heads=16
              (qkv): Linear(in_features=512, out_features=1536, bias=True)
              (attn_drop): Dropout(p=0.0, inplace=False)
              (proj): Linear(in_features=512, out_features=512, bias=True)
              (proj_drop): Dropout(p=0.0, inplace=False)
              (softmax): Softmax(dim=-1)
            )
            (drop_path): DropPath(drop_prob=0.122)
            (norm2): LayerNorm((512,), eps=1e-05, elementwise_affine=True)
            (mlp): Mlp(
              (fc1): Linear(in_features=512, out_features=2048, bias=True)
              (act): GELU(approximate='none')
              (fc2): Linear(in_features=2048, out_features=512, bias=True)
              (drop): Dropout(p=0.0, inplace=False)
            )
          )
          (11): SwinTransformerBlock(
            dim=512, input_resolution=(16, 16), num_heads=16, window_size=16, shift_size=0, mlp_ratio=4.0
            (norm1): LayerNorm((512,), eps=1e-05, elementwise_affine=True)
            (attn): WindowAttention(
              dim=512, window_size=(16, 16), num_heads=16
              (qkv): Linear(in_features=512, out_features=1536, bias=True)
              (attn_drop): Dropout(p=0.0, inplace=False)
              (proj): Linear(in_features=512, out_features=512, bias=True)
              (proj_drop): Dropout(p=0.0, inplace=False)
              (softmax): Softmax(dim=-1)
            )
            (drop_path): DropPath(drop_prob=0.130)
            (norm2): LayerNorm((512,), eps=1e-05, elementwise_affine=True)
            (mlp): Mlp(
              (fc1): Linear(in_features=512, out_features=2048, bias=True)
              (act): GELU(approximate='none')
              (fc2): Linear(in_features=2048, out_features=512, bias=True)
              (drop): Dropout(p=0.0, inplace=False)
            )
          )
          (12): SwinTransformerBlock(
            dim=512, input_resolution=(16, 16), num_heads=16, window_size=16, shift_size=0, mlp_ratio=4.0
            (norm1): LayerNorm((512,), eps=1e-05, elementwise_affine=True)
            (attn): WindowAttention(
              dim=512, window_size=(16, 16), num_heads=16
              (qkv): Linear(in_features=512, out_features=1536, bias=True)
              (attn_drop): Dropout(p=0.0, inplace=False)
              (proj): Linear(in_features=512, out_features=512, bias=True)
              (proj_drop): Dropout(p=0.0, inplace=False)
              (softmax): Softmax(dim=-1)
            )
            (drop_path): DropPath(drop_prob=0.139)
            (norm2): LayerNorm((512,), eps=1e-05, elementwise_affine=True)
            (mlp): Mlp(
              (fc1): Linear(in_features=512, out_features=2048, bias=True)
              (act): GELU(approximate='none')
              (fc2): Linear(in_features=2048, out_features=512, bias=True)
              (drop): Dropout(p=0.0, inplace=False)
            )
          )
          (13): SwinTransformerBlock(
            dim=512, input_resolution=(16, 16), num_heads=16, window_size=16, shift_size=0, mlp_ratio=4.0
            (norm1): LayerNorm((512,), eps=1e-05, elementwise_affine=True)
            (attn): WindowAttention(
              dim=512, window_size=(16, 16), num_heads=16
              (qkv): Linear(in_features=512, out_features=1536, bias=True)
              (attn_drop): Dropout(p=0.0, inplace=False)
              (proj): Linear(in_features=512, out_features=512, bias=True)
              (proj_drop): Dropout(p=0.0, inplace=False)
              (softmax): Softmax(dim=-1)
            )
            (drop_path): DropPath(drop_prob=0.148)
            (norm2): LayerNorm((512,), eps=1e-05, elementwise_affine=True)
            (mlp): Mlp(
              (fc1): Linear(in_features=512, out_features=2048, bias=True)
              (act): GELU(approximate='none')
              (fc2): Linear(in_features=2048, out_features=512, bias=True)
              (drop): Dropout(p=0.0, inplace=False)
            )
          )
          (14): SwinTransformerBlock(
            dim=512, input_resolution=(16, 16), num_heads=16, window_size=16, shift_size=0, mlp_ratio=4.0
            (norm1): LayerNorm((512,), eps=1e-05, elementwise_affine=True)
            (attn): WindowAttention(
              dim=512, window_size=(16, 16), num_heads=16
              (qkv): Linear(in_features=512, out_features=1536, bias=True)
              (attn_drop): Dropout(p=0.0, inplace=False)
              (proj): Linear(in_features=512, out_features=512, bias=True)
              (proj_drop): Dropout(p=0.0, inplace=False)
              (softmax): Softmax(dim=-1)
            )
            (drop_path): DropPath(drop_prob=0.157)
            (norm2): LayerNorm((512,), eps=1e-05, elementwise_affine=True)
            (mlp): Mlp(
              (fc1): Linear(in_features=512, out_features=2048, bias=True)
              (act): GELU(approximate='none')
              (fc2): Linear(in_features=2048, out_features=512, bias=True)
              (drop): Dropout(p=0.0, inplace=False)
            )
          )
          (15): SwinTransformerBlock(
            dim=512, input_resolution=(16, 16), num_heads=16, window_size=16, shift_size=0, mlp_ratio=4.0
            (norm1): LayerNorm((512,), eps=1e-05, elementwise_affine=True)
            (attn): WindowAttention(
              dim=512, window_size=(16, 16), num_heads=16
              (qkv): Linear(in_features=512, out_features=1536, bias=True)
              (attn_drop): Dropout(p=0.0, inplace=False)
              (proj): Linear(in_features=512, out_features=512, bias=True)
              (proj_drop): Dropout(p=0.0, inplace=False)
              (softmax): Softmax(dim=-1)
            )
            (drop_path): DropPath(drop_prob=0.165)
            (norm2): LayerNorm((512,), eps=1e-05, elementwise_affine=True)
            (mlp): Mlp(
              (fc1): Linear(in_features=512, out_features=2048, bias=True)
              (act): GELU(approximate='none')
              (fc2): Linear(in_features=2048, out_features=512, bias=True)
              (drop): Dropout(p=0.0, inplace=False)
            )
          )
          (16): SwinTransformerBlock(
            dim=512, input_resolution=(16, 16), num_heads=16, window_size=16, shift_size=0, mlp_ratio=4.0
            (norm1): LayerNorm((512,), eps=1e-05, elementwise_affine=True)
            (attn): WindowAttention(
              dim=512, window_size=(16, 16), num_heads=16
              (qkv): Linear(in_features=512, out_features=1536, bias=True)
              (attn_drop): Dropout(p=0.0, inplace=False)
              (proj): Linear(in_features=512, out_features=512, bias=True)
              (proj_drop): Dropout(p=0.0, inplace=False)
              (softmax): Softmax(dim=-1)
            )
            (drop_path): DropPath(drop_prob=0.174)
            (norm2): LayerNorm((512,), eps=1e-05, elementwise_affine=True)
            (mlp): Mlp(
              (fc1): Linear(in_features=512, out_features=2048, bias=True)
              (act): GELU(approximate='none')
              (fc2): Linear(in_features=2048, out_features=512, bias=True)
              (drop): Dropout(p=0.0, inplace=False)
            )
          )
          (17): SwinTransformerBlock(
            dim=512, input_resolution=(16, 16), num_heads=16, window_size=16, shift_size=0, mlp_ratio=4.0
            (norm1): LayerNorm((512,), eps=1e-05, elementwise_affine=True)
            (attn): WindowAttention(
              dim=512, window_size=(16, 16), num_heads=16
              (qkv): Linear(in_features=512, out_features=1536, bias=True)
              (attn_drop): Dropout(p=0.0, inplace=False)
              (proj): Linear(in_features=512, out_features=512, bias=True)
              (proj_drop): Dropout(p=0.0, inplace=False)
              (softmax): Softmax(dim=-1)
            )
            (drop_path): DropPath(drop_prob=0.183)
            (norm2): LayerNorm((512,), eps=1e-05, elementwise_affine=True)
            (mlp): Mlp(
              (fc1): Linear(in_features=512, out_features=2048, bias=True)
              (act): GELU(approximate='none')
              (fc2): Linear(in_features=2048, out_features=512, bias=True)
              (drop): Dropout(p=0.0, inplace=False)
            )
          )
        )
        (downsample): PatchMerging(
          input_resolution=(16, 16), dim=512
          (reduction): Linear(in_features=2048, out_features=1024, bias=False)
          (norm): LayerNorm((2048,), eps=1e-05, elementwise_affine=True)
        )
      )
      (3): BasicLayer(
        dim=1024, input_resolution=(8, 8), depth=2
        (blocks): ModuleList(
          (0): SwinTransformerBlock(
            dim=1024, input_resolution=(8, 8), num_heads=32, window_size=8, shift_size=0, mlp_ratio=4.0
            (norm1): LayerNorm((1024,), eps=1e-05, elementwise_affine=True)
            (attn): WindowAttention(
              dim=1024, window_size=(8, 8), num_heads=32
              (qkv): Linear(in_features=1024, out_features=3072, bias=True)
              (attn_drop): Dropout(p=0.0, inplace=False)
              (proj): Linear(in_features=1024, out_features=1024, bias=True)
              (proj_drop): Dropout(p=0.0, inplace=False)
              (softmax): Softmax(dim=-1)
            )
            (drop_path): DropPath(drop_prob=0.191)
            (norm2): LayerNorm((1024,), eps=1e-05, elementwise_affine=True)
            (mlp): Mlp(
              (fc1): Linear(in_features=1024, out_features=4096, bias=True)
              (act): GELU(approximate='none')
              (fc2): Linear(in_features=4096, out_features=1024, bias=True)
              (drop): Dropout(p=0.0, inplace=False)
            )
          )
          (1): SwinTransformerBlock(
            dim=1024, input_resolution=(8, 8), num_heads=32, window_size=8, shift_size=0, mlp_ratio=4.0
            (norm1): LayerNorm((1024,), eps=1e-05, elementwise_affine=True)
            (attn): WindowAttention(
              dim=1024, window_size=(8, 8), num_heads=32
              (qkv): Linear(in_features=1024, out_features=3072, bias=True)
              (attn_drop): Dropout(p=0.0, inplace=False)
              (proj): Linear(in_features=1024, out_features=1024, bias=True)
              (proj_drop): Dropout(p=0.0, inplace=False)
              (softmax): Softmax(dim=-1)
            )
            (drop_path): DropPath(drop_prob=0.200)
            (norm2): LayerNorm((1024,), eps=1e-05, elementwise_affine=True)
            (mlp): Mlp(
              (fc1): Linear(in_features=1024, out_features=4096, bias=True)
              (act): GELU(approximate='none')
              (fc2): Linear(in_features=4096, out_features=1024, bias=True)
              (drop): Dropout(p=0.0, inplace=False)
            )
          )
        )
      )
    )
    (norm): Identity()
    (avgpool): AdaptiveAvgPool1d(output_size=1)
    (head): Identity()
  )
  (appearance_encoder): AppearanceEncoder(
    (blocks): ModuleList(
      (0-2): 3 x Sequential(
        (0): BasicTransformerBlock(
          (norm1): LayerNorm((64,), eps=1e-05, elementwise_affine=True)
          (attn1): Attention(
            (to_q): Linear(in_features=64, out_features=64, bias=False)
            (to_k): Linear(in_features=64, out_features=64, bias=False)
            (to_v): Linear(in_features=64, out_features=64, bias=False)
            (to_out): ModuleList(
              (0): Linear(in_features=64, out_features=64, bias=True)
              (1): Dropout(p=0.0, inplace=False)
            )
          )
          (norm2): LayerNorm((64,), eps=1e-05, elementwise_affine=True)
          (attn2): Attention(
            (to_q): Linear(in_features=64, out_features=64, bias=False)
            (to_k): Linear(in_features=64, out_features=64, bias=False)
            (to_v): Linear(in_features=64, out_features=64, bias=False)
            (to_out): ModuleList(
              (0): Linear(in_features=64, out_features=64, bias=True)
              (1): Dropout(p=0.0, inplace=False)
            )
          )
          (norm3): LayerNorm((64,), eps=1e-05, elementwise_affine=True)
          (ff): FeedForward(
            (net): ModuleList(
              (0): GEGLU(
                (proj): LoRACompatibleLinear(in_features=64, out_features=512, bias=True)
              )
              (1): Dropout(p=0.0, inplace=False)
              (2): LoRACompatibleLinear(in_features=256, out_features=64, bias=True)
            )
          )
        )
        (1): BasicTransformerBlock(
          (norm1): LayerNorm((64,), eps=1e-05, elementwise_affine=True)
          (attn1): Attention(
            (to_q): Linear(in_features=64, out_features=64, bias=False)
            (to_k): Linear(in_features=64, out_features=64, bias=False)
            (to_v): Linear(in_features=64, out_features=64, bias=False)
            (to_out): ModuleList(
              (0): Linear(in_features=64, out_features=64, bias=True)
              (1): Dropout(p=0.0, inplace=False)
            )
          )
          (norm2): LayerNorm((64,), eps=1e-05, elementwise_affine=True)
          (attn2): Attention(
            (to_q): Linear(in_features=64, out_features=64, bias=False)
            (to_k): Linear(in_features=64, out_features=64, bias=False)
            (to_v): Linear(in_features=64, out_features=64, bias=False)
            (to_out): ModuleList(
              (0): Linear(in_features=64, out_features=64, bias=True)
              (1): Dropout(p=0.0, inplace=False)
            )
          )
          (norm3): LayerNorm((64,), eps=1e-05, elementwise_affine=True)
          (ff): FeedForward(
            (net): ModuleList(
              (0): GEGLU(
                (proj): LoRACompatibleLinear(in_features=64, out_features=512, bias=True)
              )
              (1): Dropout(p=0.0, inplace=False)
              (2): LoRACompatibleLinear(in_features=256, out_features=64, bias=True)
            )
          )
        )
        (2): BasicTransformerBlock(
          (norm1): LayerNorm((64,), eps=1e-05, elementwise_affine=True)
          (attn1): Attention(
            (to_q): Linear(in_features=64, out_features=64, bias=False)
            (to_k): Linear(in_features=64, out_features=64, bias=False)
            (to_v): Linear(in_features=64, out_features=64, bias=False)
            (to_out): ModuleList(
              (0): Linear(in_features=64, out_features=64, bias=True)
              (1): Dropout(p=0.0, inplace=False)
            )
          )
          (norm2): LayerNorm((64,), eps=1e-05, elementwise_affine=True)
          (attn2): Attention(
            (to_q): Linear(in_features=64, out_features=64, bias=False)
            (to_k): Linear(in_features=64, out_features=64, bias=False)
            (to_v): Linear(in_features=64, out_features=64, bias=False)
            (to_out): ModuleList(
              (0): Linear(in_features=64, out_features=64, bias=True)
              (1): Dropout(p=0.0, inplace=False)
            )
          )
          (norm3): LayerNorm((64,), eps=1e-05, elementwise_affine=True)
          (ff): FeedForward(
            (net): ModuleList(
              (0): GEGLU(
                (proj): LoRACompatibleLinear(in_features=64, out_features=512, bias=True)
              )
              (1): Dropout(p=0.0, inplace=False)
              (2): LoRACompatibleLinear(in_features=256, out_features=64, bias=True)
            )
          )
        )
        (3): BasicTransformerBlock(
          (norm1): LayerNorm((64,), eps=1e-05, elementwise_affine=True)
          (attn1): Attention(
            (to_q): Linear(in_features=64, out_features=64, bias=False)
            (to_k): Linear(in_features=64, out_features=64, bias=False)
            (to_v): Linear(in_features=64, out_features=64, bias=False)
            (to_out): ModuleList(
              (0): Linear(in_features=64, out_features=64, bias=True)
              (1): Dropout(p=0.0, inplace=False)
            )
          )
          (norm2): LayerNorm((64,), eps=1e-05, elementwise_affine=True)
          (attn2): Attention(
            (to_q): Linear(in_features=64, out_features=64, bias=False)
            (to_k): Linear(in_features=64, out_features=64, bias=False)
            (to_v): Linear(in_features=64, out_features=64, bias=False)
            (to_out): ModuleList(
              (0): Linear(in_features=64, out_features=64, bias=True)
              (1): Dropout(p=0.0, inplace=False)
            )
          )
          (norm3): LayerNorm((64,), eps=1e-05, elementwise_affine=True)
          (ff): FeedForward(
            (net): ModuleList(
              (0): GEGLU(
                (proj): LoRACompatibleLinear(in_features=64, out_features=512, bias=True)
              )
              (1): Dropout(p=0.0, inplace=False)
              (2): LoRACompatibleLinear(in_features=256, out_features=64, bias=True)
            )
          )
        )
      )
      (3-5): 3 x Sequential(
        (0): BasicTransformerBlock(
          (norm1): LayerNorm((128,), eps=1e-05, elementwise_affine=True)
          (attn1): Attention(
            (to_q): Linear(in_features=128, out_features=128, bias=False)
            (to_k): Linear(in_features=128, out_features=128, bias=False)
            (to_v): Linear(in_features=128, out_features=128, bias=False)
            (to_out): ModuleList(
              (0): Linear(in_features=128, out_features=128, bias=True)
              (1): Dropout(p=0.0, inplace=False)
            )
          )
          (norm2): LayerNorm((128,), eps=1e-05, elementwise_affine=True)
          (attn2): Attention(
            (to_q): Linear(in_features=128, out_features=128, bias=False)
            (to_k): Linear(in_features=128, out_features=128, bias=False)
            (to_v): Linear(in_features=128, out_features=128, bias=False)
            (to_out): ModuleList(
              (0): Linear(in_features=128, out_features=128, bias=True)
              (1): Dropout(p=0.0, inplace=False)
            )
          )
          (norm3): LayerNorm((128,), eps=1e-05, elementwise_affine=True)
          (ff): FeedForward(
            (net): ModuleList(
              (0): GEGLU(
                (proj): LoRACompatibleLinear(in_features=128, out_features=1024, bias=True)
              )
              (1): Dropout(p=0.0, inplace=False)
              (2): LoRACompatibleLinear(in_features=512, out_features=128, bias=True)
            )
          )
        )
        (1): BasicTransformerBlock(
          (norm1): LayerNorm((128,), eps=1e-05, elementwise_affine=True)
          (attn1): Attention(
            (to_q): Linear(in_features=128, out_features=128, bias=False)
            (to_k): Linear(in_features=128, out_features=128, bias=False)
            (to_v): Linear(in_features=128, out_features=128, bias=False)
            (to_out): ModuleList(
              (0): Linear(in_features=128, out_features=128, bias=True)
              (1): Dropout(p=0.0, inplace=False)
            )
          )
          (norm2): LayerNorm((128,), eps=1e-05, elementwise_affine=True)
          (attn2): Attention(
            (to_q): Linear(in_features=128, out_features=128, bias=False)
            (to_k): Linear(in_features=128, out_features=128, bias=False)
            (to_v): Linear(in_features=128, out_features=128, bias=False)
            (to_out): ModuleList(
              (0): Linear(in_features=128, out_features=128, bias=True)
              (1): Dropout(p=0.0, inplace=False)
            )
          )
          (norm3): LayerNorm((128,), eps=1e-05, elementwise_affine=True)
          (ff): FeedForward(
            (net): ModuleList(
              (0): GEGLU(
                (proj): LoRACompatibleLinear(in_features=128, out_features=1024, bias=True)
              )
              (1): Dropout(p=0.0, inplace=False)
              (2): LoRACompatibleLinear(in_features=512, out_features=128, bias=True)
            )
          )
        )
        (2): BasicTransformerBlock(
          (norm1): LayerNorm((128,), eps=1e-05, elementwise_affine=True)
          (attn1): Attention(
            (to_q): Linear(in_features=128, out_features=128, bias=False)
            (to_k): Linear(in_features=128, out_features=128, bias=False)
            (to_v): Linear(in_features=128, out_features=128, bias=False)
            (to_out): ModuleList(
              (0): Linear(in_features=128, out_features=128, bias=True)
              (1): Dropout(p=0.0, inplace=False)
            )
          )
          (norm2): LayerNorm((128,), eps=1e-05, elementwise_affine=True)
          (attn2): Attention(
            (to_q): Linear(in_features=128, out_features=128, bias=False)
            (to_k): Linear(in_features=128, out_features=128, bias=False)
            (to_v): Linear(in_features=128, out_features=128, bias=False)
            (to_out): ModuleList(
              (0): Linear(in_features=128, out_features=128, bias=True)
              (1): Dropout(p=0.0, inplace=False)
            )
          )
          (norm3): LayerNorm((128,), eps=1e-05, elementwise_affine=True)
          (ff): FeedForward(
            (net): ModuleList(
              (0): GEGLU(
                (proj): LoRACompatibleLinear(in_features=128, out_features=1024, bias=True)
              )
              (1): Dropout(p=0.0, inplace=False)
              (2): LoRACompatibleLinear(in_features=512, out_features=128, bias=True)
            )
          )
        )
        (3): BasicTransformerBlock(
          (norm1): LayerNorm((128,), eps=1e-05, elementwise_affine=True)
          (attn1): Attention(
            (to_q): Linear(in_features=128, out_features=128, bias=False)
            (to_k): Linear(in_features=128, out_features=128, bias=False)
            (to_v): Linear(in_features=128, out_features=128, bias=False)
            (to_out): ModuleList(
              (0): Linear(in_features=128, out_features=128, bias=True)
              (1): Dropout(p=0.0, inplace=False)
            )
          )
          (norm2): LayerNorm((128,), eps=1e-05, elementwise_affine=True)
          (attn2): Attention(
            (to_q): Linear(in_features=128, out_features=128, bias=False)
            (to_k): Linear(in_features=128, out_features=128, bias=False)
            (to_v): Linear(in_features=128, out_features=128, bias=False)
            (to_out): ModuleList(
              (0): Linear(in_features=128, out_features=128, bias=True)
              (1): Dropout(p=0.0, inplace=False)
            )
          )
          (norm3): LayerNorm((128,), eps=1e-05, elementwise_affine=True)
          (ff): FeedForward(
            (net): ModuleList(
              (0): GEGLU(
                (proj): LoRACompatibleLinear(in_features=128, out_features=1024, bias=True)
              )
              (1): Dropout(p=0.0, inplace=False)
              (2): LoRACompatibleLinear(in_features=512, out_features=128, bias=True)
            )
          )
        )
      )
      (6-8): 3 x Sequential(
        (0): BasicTransformerBlock(
          (norm1): LayerNorm((256,), eps=1e-05, elementwise_affine=True)
          (attn1): Attention(
            (to_q): Linear(in_features=256, out_features=256, bias=False)
            (to_k): Linear(in_features=256, out_features=256, bias=False)
            (to_v): Linear(in_features=256, out_features=256, bias=False)
            (to_out): ModuleList(
              (0): Linear(in_features=256, out_features=256, bias=True)
              (1): Dropout(p=0.0, inplace=False)
            )
          )
          (norm2): LayerNorm((256,), eps=1e-05, elementwise_affine=True)
          (attn2): Attention(
            (to_q): Linear(in_features=256, out_features=256, bias=False)
            (to_k): Linear(in_features=256, out_features=256, bias=False)
            (to_v): Linear(in_features=256, out_features=256, bias=False)
            (to_out): ModuleList(
              (0): Linear(in_features=256, out_features=256, bias=True)
              (1): Dropout(p=0.0, inplace=False)
            )
          )
          (norm3): LayerNorm((256,), eps=1e-05, elementwise_affine=True)
          (ff): FeedForward(
            (net): ModuleList(
              (0): GEGLU(
                (proj): LoRACompatibleLinear(in_features=256, out_features=2048, bias=True)
              )
              (1): Dropout(p=0.0, inplace=False)
              (2): LoRACompatibleLinear(in_features=1024, out_features=256, bias=True)
            )
          )
        )
        (1): BasicTransformerBlock(
          (norm1): LayerNorm((256,), eps=1e-05, elementwise_affine=True)
          (attn1): Attention(
            (to_q): Linear(in_features=256, out_features=256, bias=False)
            (to_k): Linear(in_features=256, out_features=256, bias=False)
            (to_v): Linear(in_features=256, out_features=256, bias=False)
            (to_out): ModuleList(
              (0): Linear(in_features=256, out_features=256, bias=True)
              (1): Dropout(p=0.0, inplace=False)
            )
          )
          (norm2): LayerNorm((256,), eps=1e-05, elementwise_affine=True)
          (attn2): Attention(
            (to_q): Linear(in_features=256, out_features=256, bias=False)
            (to_k): Linear(in_features=256, out_features=256, bias=False)
            (to_v): Linear(in_features=256, out_features=256, bias=False)
            (to_out): ModuleList(
              (0): Linear(in_features=256, out_features=256, bias=True)
              (1): Dropout(p=0.0, inplace=False)
            )
          )
          (norm3): LayerNorm((256,), eps=1e-05, elementwise_affine=True)
          (ff): FeedForward(
            (net): ModuleList(
              (0): GEGLU(
                (proj): LoRACompatibleLinear(in_features=256, out_features=2048, bias=True)
              )
              (1): Dropout(p=0.0, inplace=False)
              (2): LoRACompatibleLinear(in_features=1024, out_features=256, bias=True)
            )
          )
        )
        (2): BasicTransformerBlock(
          (norm1): LayerNorm((256,), eps=1e-05, elementwise_affine=True)
          (attn1): Attention(
            (to_q): Linear(in_features=256, out_features=256, bias=False)
            (to_k): Linear(in_features=256, out_features=256, bias=False)
            (to_v): Linear(in_features=256, out_features=256, bias=False)
            (to_out): ModuleList(
              (0): Linear(in_features=256, out_features=256, bias=True)
              (1): Dropout(p=0.0, inplace=False)
            )
          )
          (norm2): LayerNorm((256,), eps=1e-05, elementwise_affine=True)
          (attn2): Attention(
            (to_q): Linear(in_features=256, out_features=256, bias=False)
            (to_k): Linear(in_features=256, out_features=256, bias=False)
            (to_v): Linear(in_features=256, out_features=256, bias=False)
            (to_out): ModuleList(
              (0): Linear(in_features=256, out_features=256, bias=True)
              (1): Dropout(p=0.0, inplace=False)
            )
          )
          (norm3): LayerNorm((256,), eps=1e-05, elementwise_affine=True)
          (ff): FeedForward(
            (net): ModuleList(
              (0): GEGLU(
                (proj): LoRACompatibleLinear(in_features=256, out_features=2048, bias=True)
              )
              (1): Dropout(p=0.0, inplace=False)
              (2): LoRACompatibleLinear(in_features=1024, out_features=256, bias=True)
            )
          )
        )
        (3): BasicTransformerBlock(
          (norm1): LayerNorm((256,), eps=1e-05, elementwise_affine=True)
          (attn1): Attention(
            (to_q): Linear(in_features=256, out_features=256, bias=False)
            (to_k): Linear(in_features=256, out_features=256, bias=False)
            (to_v): Linear(in_features=256, out_features=256, bias=False)
            (to_out): ModuleList(
              (0): Linear(in_features=256, out_features=256, bias=True)
              (1): Dropout(p=0.0, inplace=False)
            )
          )
          (norm2): LayerNorm((256,), eps=1e-05, elementwise_affine=True)
          (attn2): Attention(
            (to_q): Linear(in_features=256, out_features=256, bias=False)
            (to_k): Linear(in_features=256, out_features=256, bias=False)
            (to_v): Linear(in_features=256, out_features=256, bias=False)
            (to_out): ModuleList(
              (0): Linear(in_features=256, out_features=256, bias=True)
              (1): Dropout(p=0.0, inplace=False)
            )
          )
          (norm3): LayerNorm((256,), eps=1e-05, elementwise_affine=True)
          (ff): FeedForward(
            (net): ModuleList(
              (0): GEGLU(
                (proj): LoRACompatibleLinear(in_features=256, out_features=2048, bias=True)
              )
              (1): Dropout(p=0.0, inplace=False)
              (2): LoRACompatibleLinear(in_features=1024, out_features=256, bias=True)
            )
          )
        )
…
pose_encoder.resnets.2.norm2.weight                                             : False
pose_encoder.resnets.2.norm2.bias                                               : False
pose_encoder.resnets.2.conv2.weight                                             : False
pose_encoder.resnets.2.conv2.bias                                               : False
pose_encoder.resnets.2.conv_shortcut.weight                                     : False
pose_encoder.resnets.2.conv_shortcut.bias                                       : False
========================unet=======================:
ExtendedUNet(
  (model): ExtendedResidualUNet2DConditionModel(
    (conv_in): Conv2d(4, 320, kernel_size=(3, 3), stride=(1, 1), padding=(1, 1))
    (time_proj): Timesteps()
    (time_embedding): TimestepEmbedding(
      (linear_1): Linear(in_features=320, out_features=1280, bias=True)
      (act): SiLU()
      (linear_2): Linear(in_features=1280, out_features=1280, bias=True)
    )
    (down_blocks): ModuleList(
      (0): CrossAttnDownBlock2D(
        (attentions): ModuleList(
          (0-1): 2 x Transformer2DModel(
            (norm): GroupNorm(32, 320, eps=1e-06, affine=True)
            (proj_in): LoRACompatibleConv(320, 320, kernel_size=(1, 1), stride=(1, 1))
            (transformer_blocks): ModuleList(
              (0): BasicTransformerBlock(
                (norm1): LayerNorm((320,), eps=1e-05, elementwise_affine=True)
                (attn1): Attention(
                  (to_q): Linear(in_features=320, out_features=320, bias=False)
                  (to_k): Linear(in_features=320, out_features=320, bias=False)
                  (to_v): Linear(in_features=320, out_features=320, bias=False)
                  (to_out): ModuleList(
                    (0): Linear(in_features=320, out_features=320, bias=True)
                    (1): Dropout(p=0.0, inplace=False)
                  )
                )
                (norm2): LayerNorm((320,), eps=1e-05, elementwise_affine=True)
                (attn2): Attention(
                  (to_q): Linear(in_features=320, out_features=320, bias=False)
                  (to_k): Linear(in_features=768, out_features=320, bias=False)
                  (to_v): Linear(in_features=768, out_features=320, bias=False)
                  (to_out): ModuleList(
                    (0): Linear(in_features=320, out_features=320, bias=True)
                    (1): Dropout(p=0.0, inplace=False)
                  )
                )
                (norm3): LayerNorm((320,), eps=1e-05, elementwise_affine=True)
                (ff): FeedForward(
                  (net): ModuleList(
                    (0): GEGLU(
                      (proj): LoRACompatibleLinear(in_features=320, out_features=2560, bias=True)
                    )
                    (1): Dropout(p=0.0, inplace=False)
                    (2): LoRACompatibleLinear(in_features=1280, out_features=320, bias=True)
…
            (nonlinearity): SiLU()
          )
        )
        (downsamplers): ModuleList(
          (0): Downsample2D(
            (conv): LoRACompatibleConv(320, 320, kernel_size=(3, 3), stride=(2, 2), padding=(1, 1))
          )
        )
      )
      (1): CrossAttnDownBlock2D(
        (attentions): ModuleList(
          (0-1): 2 x Transformer2DModel(
            (norm): GroupNorm(32, 640, eps=1e-06, affine=True)
            (proj_in): LoRACompatibleConv(640, 640, kernel_size=(1, 1), stride=(1, 1))
            (transformer_blocks): ModuleList(
              (0): BasicTransformerBlock(
                (norm1): LayerNorm((640,), eps=1e-05, elementwise_affine=True)
                (attn1): Attention(
                  (to_q): Linear(in_features=640, out_features=640, bias=False)
                  (to_k): Linear(in_features=640, out_features=640, bias=False)
                  (to_v): Linear(in_features=640, out_features=640, bias=False)
                  (to_out): ModuleList(
                    (0): Linear(in_features=640, out_features=640, bias=True)
                    (1): Dropout(p=0.0, inplace=False)
                  )
                )
                (norm2): LayerNorm((640,), eps=1e-05, elementwise_affine=True)
                (attn2): Attention(
                  (to_q): Linear(in_features=640, out_features=640, bias=False)
                  (to_k): Linear(in_features=768, out_features=640, bias=False)
                  (to_v): Linear(in_features=768, out_features=640, bias=False)
                  (to_out): ModuleList(
                    (0): Linear(in_features=640, out_features=640, bias=True)
                    (1): Dropout(p=0.0, inplace=False)
                  )
                )
                (norm3): LayerNorm((640,), eps=1e-05, elementwise_affine=True)
                (ff): FeedForward(
                  (net): ModuleList(
                    (0): GEGLU(
                      (proj): LoRACompatibleLinear(in_features=640, out_features=5120, bias=True)
                    )
                    (1): Dropout(p=0.0, inplace=False)
                    (2): LoRACompatibleLinear(in_features=2560, out_features=640, bias=True)
…
            (nonlinearity): SiLU()
          )
        )
        (downsamplers): ModuleList(
          (0): Downsample2D(
            (conv): LoRACompatibleConv(640, 640, kernel_size=(3, 3), stride=(2, 2), padding=(1, 1))
          )
        )
      )
      (2): CrossAttnDownBlock2D(
        (attentions): ModuleList(
          (0-1): 2 x Transformer2DModel(
            (norm): GroupNorm(32, 1280, eps=1e-06, affine=True)
            (proj_in): LoRACompatibleConv(1280, 1280, kernel_size=(1, 1), stride=(1, 1))
            (transformer_blocks): ModuleList(
              (0): BasicTransformerBlock(
                (norm1): LayerNorm((1280,), eps=1e-05, elementwise_affine=True)
                (attn1): Attention(
                  (to_q): Linear(in_features=1280, out_features=1280, bias=False)
                  (to_k): Linear(in_features=1280, out_features=1280, bias=False)
                  (to_v): Linear(in_features=1280, out_features=1280, bias=False)
                  (to_out): ModuleList(
                    (0): Linear(in_features=1280, out_features=1280, bias=True)
                    (1): Dropout(p=0.0, inplace=False)
                  )
                )
                (norm2): LayerNorm((1280,), eps=1e-05, elementwise_affine=True)
                (attn2): Attention(
                  (to_q): Linear(in_features=1280, out_features=1280, bias=False)
                  (to_k): Linear(in_features=768, out_features=1280, bias=False)
                  (to_v): Linear(in_features=768, out_features=1280, bias=False)
                  (to_out): ModuleList(
                    (0): Linear(in_features=1280, out_features=1280, bias=True)
                    (1): Dropout(p=0.0, inplace=False)
                  )
                )
                (norm3): LayerNorm((1280,), eps=1e-05, elementwise_affine=True)
                (ff): FeedForward(
                  (net): ModuleList(
                    (0): GEGLU(
                      (proj): LoRACompatibleLinear(in_features=1280, out_features=10240, bias=True)
                    )
                    (1): Dropout(p=0.0, inplace=False)
                    (2): LoRACompatibleLinear(in_features=5120, out_features=1280, bias=True)
…
            (time_emb_proj): LoRACompatibleLinear(in_features=1280, out_features=1280, bias=True)
            (norm2): GroupNorm(32, 1280, eps=1e-05, affine=True)
            (dropout): Dropout(p=0.0, inplace=False)
            (conv2): LoRACompatibleConv(1280, 1280, kernel_size=(3, 3), stride=(1, 1), padding=(1, 1))
            (nonlinearity): SiLU()
            (conv_shortcut): LoRACompatibleConv(1920, 1280, kernel_size=(1, 1), stride=(1, 1))
          )
        )
        (warpflows): ModuleList(
          (0-2): 3 x CustomSpatialTransformer(
            (norm): GroupNorm(32, 1280, eps=1e-06, affine=True)
            (proj_in): Conv2d(1280, 512, kernel_size=(1, 1), stride=(1, 1))
            (transformer_blocks): ModuleList(
              (0): CustomBasicTransformerBlock(
                (attn1): MemoryEfficientCrossAttentionWithMask(
                  (to_q): Linear(in_features=512, out_features=512, bias=False)
                  (to_k): Linear(in_features=512, out_features=512, bias=False)
                  (to_v): Linear(in_features=512, out_features=512, bias=False)
                  (to_out): Sequential(
                    (0): Linear(in_features=512, out_features=512, bias=True)
                    (1): Dropout(p=0.0, inplace=False)
                  )
                )
                (ff): FeedForward(
                  (net): Sequential(
                    (0): GEGLU(
                      (proj): Linear(in_features=512, out_features=4096, bias=True)
                    )
                    (1): Dropout(p=0.0, inplace=False)
                    (2): Linear(in_features=2048, out_features=512, bias=True)
                  )
                )
                (attn2): MemoryEfficientCrossAttentionWithMask(
                  (to_q): Linear(in_features=512, out_features=512, bias=False)
                  (to_k): Linear(in_features=1280, out_features=512, bias=False)
                  (to_v): Linear(in_features=1280, out_features=512, bias=False)
                  (to_out): Sequential(
                    (0): Linear(in_features=512, out_features=512, bias=True)
                    (1): Dropout(p=0.0, inplace=False)
                  )
                )
                (norm1): LayerNorm((512,), eps=1e-05, elementwise_affine=True)
                (norm2): LayerNorm((512,), eps=1e-05, elementwise_affine=True)
                (norm3): LayerNorm((512,), eps=1e-05, elementwise_affine=True)
              )
            )
            (proj_out): Conv2d(512, 1280, kernel_size=(1, 1), stride=(1, 1))
          )
        )
        (warpzc): ModuleList(
          (0-2): 3 x Conv2d(1280, 1280, kernel_size=(1, 1), stride=(1, 1))
        )
        (upsamplers): ModuleList(
          (0): Upsample2D(
            (conv): LoRACompatibleConv(1280, 1280, kernel_size=(3, 3), stride=(1, 1), padding=(1, 1))
          )
        )
      )
      (2): ExtendedResidualCrossAttnUpBlock2D(
        (attentions): ModuleList(
          (0-2): 3 x ResidualTransformer2DModel(
            (norm): GroupNorm(32, 640, eps=1e-06, affine=True)
            (proj_in): LoRACompatibleConv(640, 640, kernel_size=(1, 1), stride=(1, 1))
            (transformer_blocks): ModuleList(
              (0): ResidualTransformerBlock(
                (norm1): LayerNorm((640,), eps=1e-05, elementwise_affine=True)
                (attn1): ResidualAttention(
                  (to_q): Linear(in_features=640, out_features=640, bias=False)
                  (to_k): Linear(in_features=640, out_features=640, bias=False)
                  (to_v): Linear(in_features=640, out_features=640, bias=False)
                  (to_out): ModuleList(
                    (0): Linear(in_features=640, out_features=640, bias=True)
                    (1): Dropout(p=0.0, inplace=False)
                  )
                )
                (norm2): LayerNorm((640,), eps=1e-05, elementwise_affine=True)
                (attn2): ResidualAttention(
                  (to_q): Linear(in_features=640, out_features=640, bias=False)
                  (to_k): Linear(in_features=768, out_features=640, bias=False)
                  (to_v): Linear(in_features=768, out_features=640, bias=False)
                  (to_out): ModuleList(
                    (0): Linear(in_features=640, out_features=640, bias=True)
                    (1): Dropout(p=0.0, inplace=False)
                  )
                )
                (norm3): LayerNorm((640,), eps=1e-05, elementwise_affine=True)
                (ff): FeedForward(
                  (net): ModuleList(
                    (0): GEGLU(
                      (proj): LoRACompatibleLinear(in_features=640, out_features=5120, bias=True)
                    )
                    (1): Dropout(p=0.0, inplace=False)
                    (2): LoRACompatibleLinear(in_features=2560, out_features=640, bias=True)
…
            (time_emb_proj): LoRACompatibleLinear(in_features=1280, out_features=640, bias=True)
            (norm2): GroupNorm(32, 640, eps=1e-05, affine=True)
            (dropout): Dropout(p=0.0, inplace=False)
            (conv2): LoRACompatibleConv(640, 640, kernel_size=(3, 3), stride=(1, 1), padding=(1, 1))
            (nonlinearity): SiLU()
            (conv_shortcut): LoRACompatibleConv(960, 640, kernel_size=(1, 1), stride=(1, 1))
          )
        )
        (warpflows): ModuleList(
          (0-2): 3 x CustomSpatialTransformer(
            (norm): GroupNorm(32, 640, eps=1e-06, affine=True)
            (proj_in): Conv2d(640, 512, kernel_size=(1, 1), stride=(1, 1))
            (transformer_blocks): ModuleList(
              (0): CustomBasicTransformerBlock(
                (attn1): MemoryEfficientCrossAttentionWithMask(
                  (to_q): Linear(in_features=512, out_features=512, bias=False)
                  (to_k): Linear(in_features=512, out_features=512, bias=False)
                  (to_v): Linear(in_features=512, out_features=512, bias=False)
                  (to_out): Sequential(
                    (0): Linear(in_features=512, out_features=512, bias=True)
                    (1): Dropout(p=0.0, inplace=False)
                  )
                )
                (ff): FeedForward(
                  (net): Sequential(
                    (0): GEGLU(
                      (proj): Linear(in_features=512, out_features=4096, bias=True)
                    )
                    (1): Dropout(p=0.0, inplace=False)
                    (2): Linear(in_features=2048, out_features=512, bias=True)
                  )
                )
                (attn2): MemoryEfficientCrossAttentionWithMask(
                  (to_q): Linear(in_features=512, out_features=512, bias=False)
                  (to_k): Linear(in_features=640, out_features=512, bias=False)
                  (to_v): Linear(in_features=640, out_features=512, bias=False)
                  (to_out): Sequential(
                    (0): Linear(in_features=512, out_features=512, bias=True)
                    (1): Dropout(p=0.0, inplace=False)
                  )
                )
                (norm1): LayerNorm((512,), eps=1e-05, elementwise_affine=True)
                (norm2): LayerNorm((512,), eps=1e-05, elementwise_affine=True)
                (norm3): LayerNorm((512,), eps=1e-05, elementwise_affine=True)
              )
            )
            (proj_out): Conv2d(512, 640, kernel_size=(1, 1), stride=(1, 1))
          )
        )
        (warpzc): ModuleList(
          (0-2): 3 x Conv2d(640, 640, kernel_size=(1, 1), stride=(1, 1))
        )
        (upsamplers): ModuleList(
          (0): Upsample2D(
            (conv): LoRACompatibleConv(640, 640, kernel_size=(3, 3), stride=(1, 1), padding=(1, 1))
          )
        )
      )
      (3): ExtendedResidualCrossAttnUpBlock2D(
        (attentions): ModuleList(
          (0-2): 3 x ResidualTransformer2DModel(
            (norm): GroupNorm(32, 320, eps=1e-06, affine=True)
            (proj_in): LoRACompatibleConv(320, 320, kernel_size=(1, 1), stride=(1, 1))
            (transformer_blocks): ModuleList(
              (0): ResidualTransformerBlock(
                (norm1): LayerNorm((320,), eps=1e-05, elementwise_affine=True)
                (attn1): ResidualAttention(
                  (to_q): Linear(in_features=320, out_features=320, bias=False)
                  (to_k): Linear(in_features=320, out_features=320, bias=False)
                  (to_v): Linear(in_features=320, out_features=320, bias=False)
                  (to_out): ModuleList(
                    (0): Linear(in_features=320, out_features=320, bias=True)
                    (1): Dropout(p=0.0, inplace=False)
                  )
                )
                (norm2): LayerNorm((320,), eps=1e-05, elementwise_affine=True)
                (attn2): ResidualAttention(
                  (to_q): Linear(in_features=320, out_features=320, bias=False)
                  (to_k): Linear(in_features=768, out_features=320, bias=False)
                  (to_v): Linear(in_features=768, out_features=320, bias=False)
                  (to_out): ModuleList(
                    (0): Linear(in_features=320, out_features=320, bias=True)
                    (1): Dropout(p=0.0, inplace=False)
                  )
                )
                (norm3): LayerNorm((320,), eps=1e-05, elementwise_affine=True)
                (ff): FeedForward(
                  (net): ModuleList(
                    (0): GEGLU(
                      (proj): LoRACompatibleLinear(in_features=320, out_features=2560, bias=True)
                    )
                    (1): Dropout(p=0.0, inplace=False)
                    (2): LoRACompatibleLinear(in_features=1280, out_features=320, bias=True)
…
            (time_emb_proj): LoRACompatibleLinear(in_features=1280, out_features=320, bias=True)
            (norm2): GroupNorm(32, 320, eps=1e-05, affine=True)
            (dropout): Dropout(p=0.0, inplace=False)
            (conv2): LoRACompatibleConv(320, 320, kernel_size=(3, 3), stride=(1, 1), padding=(1, 1))
            (nonlinearity): SiLU()
            (conv_shortcut): LoRACompatibleConv(640, 320, kernel_size=(1, 1), stride=(1, 1))
          )
        )
        (warpflows): ModuleList(
          (0-2): 3 x CustomSpatialTransformer(
            (norm): GroupNorm(32, 320, eps=1e-06, affine=True)
            (proj_in): Conv2d(320, 512, kernel_size=(1, 1), stride=(1, 1))
            (transformer_blocks): ModuleList(
              (0): CustomBasicTransformerBlock(
                (attn1): MemoryEfficientCrossAttentionWithMask(
                  (to_q): Linear(in_features=512, out_features=512, bias=False)
                  (to_k): Linear(in_features=512, out_features=512, bias=False)
                  (to_v): Linear(in_features=512, out_features=512, bias=False)
                  (to_out): Sequential(
                    (0): Linear(in_features=512, out_features=512, bias=True)
                    (1): Dropout(p=0.0, inplace=False)
                  )
                )
                (ff): FeedForward(
                  (net): Sequential(
                    (0): GEGLU(
                      (proj): Linear(in_features=512, out_features=4096, bias=True)
                    )
                    (1): Dropout(p=0.0, inplace=False)
                    (2): Linear(in_features=2048, out_features=512, bias=True)
                  )
                )
                (attn2): MemoryEfficientCrossAttentionWithMask(
                  (to_q): Linear(in_features=512, out_features=512, bias=False)
                  (to_k): Linear(in_features=320, out_features=512, bias=False)
                  (to_v): Linear(in_features=320, out_features=512, bias=False)
                  (to_out): Sequential(
                    (0): Linear(in_features=512, out_features=512, bias=True)
                    (1): Dropout(p=0.0, inplace=False)
                  )
                )
                (norm1): LayerNorm((512,), eps=1e-05, elementwise_affine=True)
                (norm2): LayerNorm((512,), eps=1e-05, elementwise_affine=True)
                (norm3): LayerNorm((512,), eps=1e-05, elementwise_affine=True)
              )
            )
            (proj_out): Conv2d(512, 320, kernel_size=(1, 1), stride=(1, 1))
          )
        )
        (warpzc): ModuleList(
          (0-2): 3 x Conv2d(320, 320, kernel_size=(1, 1), stride=(1, 1))
        )
      )
    )
    (mid_block): UNetMidBlock2DCrossAttn(
      (attentions): ModuleList(
        (0): Transformer2DModel(
          (norm): GroupNorm(32, 1280, eps=1e-06, affine=True)
          (proj_in): LoRACompatibleConv(1280, 1280, kernel_size=(1, 1), stride=(1, 1))
          (transformer_blocks): ModuleList(
            (0): BasicTransformerBlock(
              (norm1): LayerNorm((1280,), eps=1e-05, elementwise_affine=True)
              (attn1): Attention(
                (to_q): Linear(in_features=1280, out_features=1280, bias=False)
                (to_k): Linear(in_features=1280, out_features=1280, bias=False)
                (to_v): Linear(in_features=1280, out_features=1280, bias=False)
                (to_out): ModuleList(
                  (0): Linear(in_features=1280, out_features=1280, bias=True)
                  (1): Dropout(p=0.0, inplace=False)
                )
              )
              (norm2): LayerNorm((1280,), eps=1e-05, elementwise_affine=True)
              (attn2): Attention(
                (to_q): Linear(in_features=1280, out_features=1280, bias=False)
                (to_k): Linear(in_features=768, out_features=1280, bias=False)
                (to_v): Linear(in_features=768, out_features=1280, bias=False)
                (to_out): ModuleList(
                  (0): Linear(in_features=1280, out_features=1280, bias=True)
                  (1): Dropout(p=0.0, inplace=False)
                )
              )
              (norm3): LayerNorm((1280,), eps=1e-05, elementwise_affine=True)
              (ff): FeedForward(
                (net): ModuleList(
                  (0): GEGLU(
                    (proj): LoRACompatibleLinear(in_features=1280, out_features=10240, bias=True)
                  )
                  (1): Dropout(p=0.0, inplace=False)
                  (2): LoRACompatibleLinear(in_features=5120, out_features=1280, bias=True)
…
